gru_parameters_new.pt (torch_old, 248732 bytes, 4 tensors)

weight_ih_l0 f4 [300, 100]
0	0xbce858e6	-0.028362703
1	0x3cff5310	0.031167537
2	0xbd053b69	-0.03252736
3	0x3b8222d4	0.003971437
4	0xbe0edfdc	-0.13952583
5	0xbc2db6fb	-0.010602708
6	0x3d94517f	0.07242107
7	0x3db38703	0.08765986
8	0xbe36d059	-0.17852916
9	0x3e247b1b	0.16062586
10	0xbd991b89	-0.07475955
11	0xbd6da45b	-0.05801807
12	0xbe026df5	-0.12737258
13	0x3d4d1f9d	0.050078977
14	0xbcb535e1	-0.022120418
15	0x3c322e97	0.010875366
16	0xbd6b0aa0	-0.05738318
17	0xbdab566b	-0.08366092
18	0xbd848309	-0.064703055
19	0xbb104b27	-0.002201745
20	0x3d42deba	0.04757569
21	0x3e1c5c04	0.15269476
22	0xbddfb32f	-0.109228484
23	0xbe016b3e	-0.12638566
24	0x3e0622a0	0.13099146
25	0xbe405f13	-0.18786268
26	0x3d09a645	0.033605833
27	0xbdb71992	-0.08940424
28	0xbdf11450	-0.117714524
29	0x3dfd87af	0.12379395
30	0x3c0a730b	0.00845028
31	0xbe0820bb	-0.13293736
32	0x3d97775f	0.07395815
33	0x381dd856	3.7633195e-05
34	0x3dd60ca9	0.104516335
35	0x3e21baea	0.15793958
36	0xbdd31f3e	-0.10308693
37	0x3d89db40	0.06731272
38	0xbbc5a2b3	-0.006031358
39	0x3e15bdf6	0.14623246
40	0x3d7bd25b	0.061479907
41	0xbd829b8e	-0.06377326
42	0xbe1db43d	-0.15400787
43	0x3d8d5656	0.06901233
44	0x3ce7965f	0.028269945
45	0x3db21d6e	0.086970195
46	0x3dcb7a78	0.099354684
47	0xbd652b8e	-0.05594974
48	0xbe56709f	-0.20941399
49	0x3c7eb6d7	0.015546522
50	0x3c573e33	0.013137388
51	0x3c420f4e	0.011844469
52	0xbd07e188	-0.033174068
53	0xbdbc418a	-0.09192188
54	0x3e0e8989	0.13919653
55	0x3d916a5b	0.07100364
56	0xbb2201e9	-0.0024720377
57	0x3daf0b75	0.08547107
58	0xbde17db2	-0.110103026
59	0xbb5d2759	-0.0033745377
60	0xbd732b3d	-0.059367407
61	0xbe273519	-0.16328849
62	0xbe033ab9	-0.1281537
63	0xbc251a0d	-0.010077012
64	0x3bdf6d08	0.0068184175
65	0xbe0104e9	-0.1259953
66	0xbdd8eede	-0.10592435
67	0xbcc5b6d7	-0.024135036
68	0x3dd02aea	0.10164435
69	0x3d928a87	0.07155328
70	0xbe24b6c0	-0.16085339
71	0x3e68ecf5	0.22746642
72	0x3c3f4a5b	0.011675443
73	0x3d8e8bf5	0.069602884
74	0x3c022cde	0.0079452675
75	0x3c88489a	0.016636182
76	0xbe163232	-0.14667585
77	0xbe2961a0	-0.16541147
78	0x3d998106	0.074953124
79	0xbcaf178a	-0.021373529
80	0x3cee33d2	0.029077444
81	0x3d8897d3	0.06669583
82	0xbe02628c	-0.12732905
83	0x3b943f1e	0.0045241257
84	0xbdd20877	-0.10255521
85	0xbd7aa16b	-0.061189096
86	0xbda4d6b7	-0.08048766
87	0x3d609886	0.054832958
88	0xbdb1f7f4	-0.086898714
89	0xbe165dc0	-0.146842
90	0x3dda295d	0.10652421
91	0xbdca7e3c	-0.098873585
92	0x3db39701	0.08769036
93	0xbad0ca91	-0.001592951
94	0xbd485129	-0.048905525
95	0xbd46159c	-0.048360452
96	0xbe058e09	-0.13042463
97	0x3d3f5d15	0.04671963
98	0xbdbd5be5	-0.09246043
99	0x3de9a45a	0.11408301
100	0x3df79d9c	0.120906085
101	0x3d84c101	0.06482125
102	0x3d9bc347	0.076056056
103	0x3d046d41	0.032330755
104	0x3d86c755	0.06580988
105	0x3d5897d8	0.052879184
106	0x3c84f6ce	0.016230967
107	0x3d3b785f	0.04576909
108	0x3cbff222	0.023430888
109	0xbe102934	-0.14078218
110	0xbe20dd5a	-0.15709439
111	0x3dff91f2	0.12479009
112	0xbc81bf1a	-0.015838195
113	0x3db23e0a	0.08703239
114	0x3d9635c5	0.073344745
115	0x3d6ff18a	0.05857996
116	0xbe351a78	-0.17685878
117	0xbcbdba40	-0.0231601
118	0x3db56233	0.08856621
119	0xbd9a6ca3	-0.07540252
120	0x3dfb11c0	0.12259245
121	0x3e121470	0.14265609
122	0xbc85c7fe	-0.016330715
123	0x3c7f2023	0.015571627
124	0x3e0f29f6	0.1398085
125	0xbc48f9ec	-0.012266617
126	0x3d0cd4b2	0.03438253
127	0x3dc2471f	0.094862215
128	0x3e0ad50a	0.1355783
129	0x3e121c78	0.14268672
130	0x3e1d2d63	0.15349345
131	0x3dcc3260	0.09970546
132	0xbc862151	-0.016373308
133	0xbd0b6f75	-0.03404184
134	0xbc714d0f	-0.014727845
135	0x3d96d5dd	0.0736501
136	0xbdf4cc46	-0.119530246
137	0xbd888686	-0.06666283
138	0x3cd3e53d	0.025866145
139	0x3d92b30e	0.07163058
140	0x3c80101c	0.015632682
141	0x3ddceb5c	0.10787079
142	0x3d174c96	0.036938272
143	0xbe557f77	-0.20849405
144	0xbd94f198	-0.07272643
145	0xbd0386a8	-0.03211084
146	0x3b932666	0.0044906614
147	0xbcdc9a33	-0.026928997
148	0xbd383cd6	-0.044979893
149	0x3e3a8c32	0.18217543
150	0xbd81a662	-0.06330563
151	0xbda740f8	-0.08166689
152	0xbe05b45a	-0.1305708
153	0xbd88c37e	-0.06677912
154	0xbe5e5508	-0.21712124
155	0xbd747aca	-0.059687413
156	0xbe311050	-0.17291379
157	0xbd339fe5	-0.04385366
158	0xbd4d57d3	-0.050132584
159	0x3df560d4	0.11981359
160	0xbd8b3cca	-0.06798704
161	0xbc9747fd	-0.018466944
162	0x3e0949ad	0.13407011
163	0xbe0590c0	-0.13043499
164	0x3e6dffec	0.23242158
165	0xbe43c102	-0.19116595
166	0xbe1b8480	-0.15187263
167	0x3d809414	0.06278244
168	0x3e05d491	0.13069369
169	0xbdc9a107	-0.09845167
170	0xbd2baa01	-0.041910175
171	0x3d1e0fc0	0.03858924
172	0x3d8b9c04	0.06816867
173	0x3e081d26	0.13292369
174	0x3deeb558	0.11655682
175	0x3ddfee9f	0.10934185
176	0x3d998536	0.07496111
177	0x3e220906	0.15823755
178	0xbd2f78be	-0.042839758
179	0xbd85ae9b	-0.06527444
180	0xbbb0e1b2	-0.0053979987
181	0xbe119f89	-0.14221014
182	0x3dd65383	0.10465147
183	0xbdaee69c	-0.08540079
184	0x3ce3d188	0.027809873
185	0x3d033b61	0.03203905
186	0xbcd19437	-0.02558337
187	0x3d9b2208	0.0757485
188	0xbc772b13	-0.015085953
189	0xbc388395	-0.01126184
190	0x3bb49e16	0.0055120094
191	0x3de51689	0.11185939
192	0x3d21aa41	0.039469007
193	0xbca8ad14	-0.020590343
194	0xbd5db098	-0.05412349
195	0x3dcba97c	0.09944436
196	0x3e27093d	0.16312118
197	0xbc976030	-0.018478483
198	0x3dc5a75b	0.09651061
199	0x3e120e4d	0.14263268
200	0xbddfc7d1	-0.10926784
201	0x3d7cd378	0.06172511
202	0xbdf0bf3f	-0.11755227
203	0x3dd4e3c6	0.10395007
204	0xbbb542a6	-0.0055316268
205	0xbd54ee88	-0.051985294
206	0x3d0b21b7	0.0339677
207	0x3cf44faf	0.029823152
208	0x3e06558d	0.13118573
209	0xbdbe7a71	-0.093006976
210	0x3d6c5ffc	0.057708725
211	0xbd1d520a	-0.038408317
212	0xbd32d24e	-0.043657593
213	0x3d899937	0.067186765
214	0x3e136447	0.14393722
215	0x3dcf4cf7	0.10122102
216	0x3c1772fb	0.009243722
217	0xbd81a485	-0.06330208
218	0x3dd4eff6	0.103973314
219	0x3d3c0940	0.04590726
220	0xbd29c3ed	-0.041446615
221	0x3d6a8d8c	0.057263896
222	0x3e1e6b31	0.15470578
223	0xbdf47faa	-0.119384125
224	0xbd4978f7	-0.049187627
225	0xbdd7dd14	-0.10540214
226	0x3d8d0d70	0.068873286
227	0xbcc2d4c2	-0.023783091
228	0xbd812fbc	-0.06307933
229	0xbd89d54c	-0.06730136
230	0x3d7c5ad6	0.061610065
231	0xbdd8c635	-0.1058468
232	0x3c92ac86	0.017904531
233	0xbcd03163	-0.025414174
234	0xbd628bcf	-0.055309113
235	0x3d59a42c	0.053135082
236	0x3dde2a35	0.10847894
237	0xbd72b8b7	-0.05925819
238	0x3dae0842	0.08497669
239	0x3e0a05ef	0.13478826
240	0x3e18c280	0.14917946
241	0xbc50d3c6	-0.012745803
242	0xbbe92970	-0.0071155354
243	0x3b1e5d0f	0.0024164354
244	0x3e0f4c38	0.13993919
245	0x3d91f49c	0.07126734
246	0xbdd3ee31	-0.10348166
247	0x3dfa53b0	0.122229934
248	0x3d8e1fcb	0.06939658
249	0xbd3eea65	-0.046610255
250	0x3daf4082	0.08557226
251	0x3d08726a	0.03331224
252	0x3d577f97	0.052611914
253	0x3d02d33e	0.031939737
254	0x3b9172b8	0.0044387244
255	0xbd2e39e4	-0.042535678

weight_hh_l0 f4 [300, 100]
0	0x3d58262d	0.052770782
1	0x3d807e82	0.062741295
2	0xbc7781f2	-0.015106665
3	0x3d88cf15	0.06680123
4	0xbdad5bf2	-0.08464803
5	0x3e29bc96	0.16575846
6	0xbdb45ac6	-0.08806376
7	0x3d488d91	0.048963133
8	0xbc60cce9	-0.013720729
9	0xbb11380e	-0.0022158655
10	0x3b430bf7	0.002976177
11	0x3bae457d	0.0053183422
12	0xbd7efc62	-0.06225241
13	0x3d90cc05	0.07070164
14	0x3e8bc807	0.27301046
15	0xbd3b6019	-0.045745943
16	0x3c810b9f	0.015752612
17	0xbe15a77b	-0.1461467
18	0x3c3c520f	0.011494174
19	0xbe1564de	-0.14589259
20	0xbd7f52e5	-0.062334914
21	0xbe123b4c	-0.14280432
22	0xbd221f10	-0.039580405
23	0xbcaa844c	-0.020815037
24	0xbb906be6	-0.0044073937
25	0xbd8241f5	-0.063602366
26	0xbb545bb5	-0.0032403294
27	0xbe1c097f	-0.15237997
28	0x3db95d45	0.09050993
29	0x3dee4bf6	0.11635582
30	0xbdb7d7b0	-0.08976686
31	0xbd4f092a	-0.05054585
32	0x3cf82ed4	0.030295767
33	0xbc1f29b4	-0.009714533
34	0xbd02c124	-0.031922475
35	0xbd1d3869	-0.038383875
36	0xbcd1c5d0	-0.02560702
37	0x3c5ce90b	0.013483296
38	0xbdaf9dc7	-0.085750155
39	0x3d9e44f9	0.07727999
40	0xbd62bfc0	-0.05535865
41	0x3e172a63	0.14762263
42	0xbd9c92dc	-0.07645199
43	0xbd6deffa	-0.058090188
44	0x3dd64ec6	0.104642436
45	0xbb6e8901	-0.0036397579
46	0xbc9aa7e7	-0.01887889
47	0xbd96b0b2	-0.07357921
48	0xbcbf527d	-0.023354763
49	0x3dd23d29	0.102655716
50	0x3d55e33b	0.052218657
51	0xbcbccff7	-0.023048384
52	0x3ceaea2f	0.02867612
53	0x3dbcbfb9	0.09216256
54	0x3d9fb46e	0.07798086
55	0xbd370032	-0.04467792
56	0x3d817ca0	0.063225985
57	0x3d3617da	0.04445634
58	0x3d2e8c9e	0.04261457
59	0x3bacd4b6	0.0052743806
60	0x3c498104	0.012298826
61	0x3da0ba5a	0.07848044
62	0x3e44a9b1	0.19205357
63	0x3d269bbe	0.04067587
64	0x3d512048	0.051056176
65	0x3d49d3fe	0.049274437
66	0x3d6d4821	0.057930116
67	0x3da439ef	0.080188625
68	0xbde58490	-0.11206925
69	0xbe585a93	-0.21128301
70	0xbd2da452	-0.042393036
71	0xbd611ccc	-0.054959103
72	0xbd1876ca	-0.03722266
73	0x3dbd105b	0.09231635
74	0x3d6d47b0	0.057929695
75	0x3d1b7221	0.03795064
76	0x3cb62e06	0.022238743
77	0x3ce04f85	0.027381668
78	0x3d707eb1	0.058714572
79	0xbd5611cb	-0.052263062
80	0xbd729b5f	-0.059230205
81	0x3d6433bc	0.0557134
82	0xbc24ce47	-0.010058946
83	0xbd7b42d4	-0.06134303
84	0xbce90ddd	-0.028448993
85	0x3d282317	0.04104909
86	0x3d556ccf	0.05210572
87	0x3e01041d	0.12599225
88	0xbe009209	-0.12555708
89	0xbdce16e0	-0.10062957
90	0x3d9b0dc6	0.075709864
91	0xbe4ec56e	-0.20192501
92	0x3e46f57d	0.19429584
93	0xbdde6807	-0.108596854
94	0xbc1c193d	-0.009527502
95	0x3d85fe61	0.065426596
96	0x3d6112a9	0.054949436
97	0x3c9c40f2	0.019073937
98	0x3d4cd23a	0.050005175
99	0x3be9f2f2	0.007139557
100	0x3d52c450	0.05145675
101	0xbd8eae0e	-0.06966792
102	0xba086ef5	-0.0005204522
103	0x3bc97932	0.006148481
104	0xbd29db6e	-0.04146903
105	0xbe0b3810	-0.13595605
106	0xbdf89c6a	-0.121392086
107	0x3dee1bb0	0.11626375
108	0xbdc1f169	-0.094698735
109	0xbe1c5247	-0.15265761
110	0x3bdebc3d	0.006797342
111	0x3dfce109	0.123476095
112	0xbd5c0edc	-0.05372511
113	0xbd449fba	-0.04800389
114	0xbd0df6a0	-0.034659028
115	0xbcf10f36	-0.029426198
116	0xbd4d8d66	-0.050183676
117	0xbbe2e42e	-0.006924174
118	0xbd23da47	-0.040003087
119	0xbda58c7a	-0.080834344
120	0xba8074d9	-0.0009800448
121	0xbdc31f01	-0.09527398
122	0xbcf19515	-0.029490033
123	0xbb52000d	-0.0032043487
124	0xbd8fbba1	-0.07018209
125	0x3c020f1d	0.007938174
126	0xbd75ac35	-0.059978683
127	0x3a00b696	0.000491002
128	0x3df839e2	0.12120415
129	0x3c99aec8	0.0187601
130	0xbcdc5c65	-0.026899526
131	0x3d02eaa7	0.031962063
132	0xbd9fbe32	-0.07799949
133	0x3b8bec31	0.0042700996
134	0xbe38806b	-0.18017738
135	0xbd6b5e40	-0.05746293
136	0xbdad7941	-0.08470393
137	0x3d94f1bb	0.07272669
138	0xbdb0ab8d	-0.08626471
139	0xbd6a0a8c	-0.057138965
140	0x3d10447f	0.035221573
141	0xbdd8c2b0	-0.10584009
142	0xbb954f57	-0.004556577
143	0xbd98ffa6	-0.07470636
144	0x3d53685d	0.0516132
145	0xbd61af86	-0.055099033
146	0x3d95d76e	0.073164806
147	0xbdbc0222	-0.09180094
148	0x3d8957f2	0.06706227
149	0xbd3d7712	-0.046256132
150	0x3d1ed03b	0.038772803
151	0xbdd49a09	-0.103809424
152	0xbda07c4c	-0.07836208
153	0xbd204248	-0.03912571
154	0x3d20e331	0.039279167
155	0x3d78223a	0.060579516
156	0x3d67979e	0.056541078
157	0x3dc7cfd6	0.097564384
158	0x3d477c50	0.048702538
159	0xbe06e447	-0.13173018
160	0x3bebd90e	0.007197506
161	0x3d5f4de7	0.054517653
162	0xbd4dfb79	-0.05028865
163	0x3c29b2ae	0.010357542
164	0xbe02a8e5	-0.1275974
165	0xbdc63cd3	-0.0967957
166	0xbc2844ee	-0.01027034
167	0xbdbfcb5d	-0.0936496
168	0xbd98685b	-0.07441779
169	0xbdb4d84e	-0.08830319
170	0x3e236925	0.15958078
171	0xbd84440f	-0.06458294
172	0xbcabcb90	-0.02097109
173	0xbdf8a43f	-0.121407025
174	0xbd3fac4d	-0.04679518
175	0xbd8daa4f	-0.069172494
176	0x3c2c2835	0.010507633
177	0xbd950352	-0.07276024
178	0x3d8c17be	0.06840466
179	0xbd3f40de	-0.04669272
180	0xbe044c8a	-0.12919822
181	0xbe00e1b0	-0.12586093
182	0xbc02d785	-0.007985954
183	0x3d467ed4	0.048460796
184	0x3d0ac0fe	0.033875458
185	0x3d029270	0.031877935
186	0xbd92cfe3	-0.071685575
187	0x3a246fd6	0.00062727684
188	0xbceb4090	-0.02871731
189	0xbd819a8e	-0.06328307
190	0xbe3d11dd	-0.18463846
191	0xbcdf427e	-0.027253386
192	0xbd9adf97	-0.07562178
193	0xbd6f0827	-0.058357384
194	0x3dbf4f34	0.09341279
195	0xbd3447c2	-0.044013746
196	0x3d61a873	0.055092286
197	0x3cb83d85	0.022490272
198	0xbcf2e735	-0.029651264
199	0xbd8bcb12	-0.06825842
200	0xbd8cea25	-0.06880597
201	0x3d06a6bd	0.032873858
202	0xbb59ad4a	-0.003321486
203	0xbdbf9461	-0.09354473
204	0xbd16354b	-0.036671918
205	0x3c22e66f	0.009942635
206	0xbd880ff8	-0.06643671
207	0x3c9ad48f	0.018900184
208	0xbd2b6b97	-0.041850653
209	0xbd1e2edc	-0.038618907
210	0xbd887592	-0.0666305
211	0x3d1abc25	0.037777085
212	0xbd0b953b	-0.034077864
213	0xbd1ddfb8	-0.038543433
214	0xbc6ce51e	-0.014458923
215	0x3ce86592	0.028368745
216	0xbaffa2b1	-0.0019503442
217	0xbb44fe73	-0.003005889
218	0x3d53ab9f	0.051677343
219	0x3b85ab37	0.0040792483
220	0xbd1f9775	-0.0389628
221	0x3cf99754	0.030467667
222	0xbb01a0a5	-0.001977959
223	0x39666863	0.00021973396
224	0x3d5b2c3f	0.053508993
225	0xbc4324fc	-0.011910673
226	0x3c5142eb	0.012772302
227	0xbe46dc7a	-0.19420043
228	0xbdd10c25	-0.102073945
229	0x3d905a89	0.07048518
230	0xbd66f1f7	-0.0563831
231	0x3d6791de	0.056535594
232	0x3cd5d344	0.026101716
233	0x3ca6769c	0.02032023
234	0xbe255c67	-0.1614853
235	0x3e0781f5	0.13233168
236	0x3d08b226	0.03337302
237	0xbe4a10b6	-0.19732937
238	0x3c2af58a	0.010434518
239	0xbd9dcb0d	-0.077047445
240	0xbc632996	-0.013864895
241	0xbd96add6	-0.07357375
242	0x3d974bc4	0.07387498
243	0x3d8cc9b0	0.06874406
244	0x3ccceb1c	0.025014453
245	0xbbe7fb80	-0.0070795417
246	0x3b4bd311	0.0031101147
247	0x3c3ca113	0.011513012
248	0x3e04f00e	0.12982199
249	0x3b15280f	0.0022759472
250	0x3dda8f01	0.10671807
251	0xbdfbb48c	-0.12290296
252	0x3d38dbe9	0.045131598
253	0x3d8f5ae7	0.0699976
254	0x3daac963	0.08339193
255	0x3e00c6d7	0.12575851

bias_ih_l0 f4 [300]
0	0x3d116137	0.035493102
1	0x3cfd0485	0.030885944
2	0x3c4e1cce	0.01258011
3	0x3d164f8f	0.036696967
4	0x3d29d85f	0.041466113
5	0x3ca37a88	0.019955888
6	0x3ccc45ff	0.02493572
7	0x3c8fcca2	0.017553631
8	0x3d28ea49	0.041239057
9	0x3d1eda77	0.038782563
10	0x3d0380c4	0.032105222
11	0xbb3c209a	-0.0028705955
12	0x3d1b55ba	0.037923552
13	0x3cf32862	0.029682342
14	0x3d16e9d7	0.0368441
15	0x3d2de91d	0.042458642
16	0x3ca03e8a	0.019561071
17	0x3cd952ce	0.026528742
18	0xbae4e9e2	-0.0017464722
19	0x3c139f7a	0.00901019
20	0x3c8dcdd5	0.017310062
21	0x3cc0c29f	0.023530303
22	0x3c68e7e1	0.0142154405
23	0x3cd3863e	0.025820848
24	0x3c9e116a	0.019295413
25	0x3c71c161	0.014755578
26	0x3c62add7	0.013835392
27	0xbc079ac5	-0.008276646
28	0x3cfd3140	0.030907273
29	0x3cab0a07	0.020878805
30	0x3d22e66e	0.039770536
31	0x3bf9dabc	0.007624952
32	0x3d465fd4	0.048431233
33	0x3c639f8b	0.0138930185
34	0x3b441878	0.002992181
35	0x3d03f890	0.03221947
36	0x3c5ef5f5	0.013608445
37	0x3c1214be	0.008916078
38	0x3d3edb2f	0.04659575
39	0x3c27366a	0.010205844
40	0x3be96760	0.007122919
41	0x3d309866	0.04311409
42	0x3d05545d	0.03255116
43	0x3cf5b144	0.029991753
44	0x3cdc6ee7	0.026908351
45	0x3d0c33ce	0.034229092
46	0x3c35a7be	0.011087356
47	0x3cee176d	0.029063905
48	0x3ce474b2	0.027887676
49	0x3d06bf30	0.032897174
50	0x3cba85e1	0.022768917
51	0x3d101e2c	0.035185024
52	0x3cf6dd97	0.03013496
53	0xbb0c06e2	-0.0021366407
54	0x3c23249f	0.009957462
55	0x3b4621f5	0.0030232642
56	0x3cf63478	0.030054316
57	0x3be16f71	0.00687974
58	0x3d06e651	0.03293449
59	0x3d48b5d0	0.049001515
60	0xbb5a9abc	-0.003335639
61	0x3d171031	0.036880676
62	0x3bd58f54	0.00651733
63	0x3c63afe8	0.01389692
64	0x3d26230e	0.040560775
65	0x3c274b8b	0.010210882
66	0x3cba1819	0.022716569
67	0x3caa3082	0.020775083
68	0x3ca5f960	0.020260513
69	0x3d17bb0d	0.03704362
70	0x3c305443	0.010762277
71	0x3cd492f8	0.025948986
72	0x3be803e0	0.00708054
73	0x3c8b0b00	0.016973019
74	0x3cee440b	0.02908518
75	0x3c95a157	0.01826541
76	0x3d1e6bb2	0.038676925
77	0x3d3a41fb	0.04547308
78	0x3bf102fb	0.0073550916
79	0x3c967da5	0.018370459
80	0x3c90b5cc	0.017664813
81	0x3d34779c	0.04405938
82	0x3d6d5ff7	0.057952847
83	0x3cf06331	0.029344173
84	0x39c877a9	0.00038236126
85	0x3ca24146	0.019806515
86	0x3d07d918	0.03316602
87	0x3d043b74	0.03228326
88	0x3c9e816d	0.019348824
89	0x3cf530b4	0.02993045
90	0x3c03fa99	0.008055353
91	0x3ca091c9	0.019600766
92	0x3c7b6b52	0.015345411
93	0x3c73c01a	0.014877344
94	0x3d127ab8	0.035761565
95	0x3d0c26b6	0.034216605
96	0x3c193f1f	0.009353428
97	0x3d198e91	0.037489478
98	0x3d09de00	0.03365898
99	0xbb42f9a2	-0.0029750844
100	0xbd633e63	-0.05547942
101	0xbd53d801	-0.05171967
102	0xbd605ee8	-0.05477801
103	0xbd09200a	-0.03347782
104	0xbd2bb4b0	-0.041920364
105	0xbd4f97e9	-0.050681982
106	0xbd2108bb	-0.039314967
107	0xbd118049	-0.035522733
108	0xbd4322fb	-0.04764078
109	0xbd98d67f	-0.07462787
110	0xbcac4afc	-0.02103185
111	0xbd4635b7	-0.04839107
112	0xbd46cd22	-0.048535474
113	0xbd434e2c	-0.047681972
114	0xbd715def	-0.058927473
115	0xbd5b8327	-0.053591873
116	0xbc829e41	-0.015944602
117	0xbd9bff70	-0.0761708
118	0xbc60f376	-0.013729921
119	0xbcf46247	-0.029832019
120	0xbd4ff624	-0.050771847
121	0xbd0a08bb	-0.033699732
122	0xbd3f75bb	-0.046743136
123	0xbcef1cb0	-0.029188484
124	0x3a0867c8	0.0005203453
125	0xbd1f4ac7	-0.038889673
126	0xbcd2f24f	-0.025750307
127	0xbd3b1641	-0.04567552
128	0xbd8eb22e	-0.06967579
129	0xbd34af5e	-0.044112556
130	0xbd73833e	-0.059451334
131	0xbc80b16f	-0.015709607
132	0xbd5c68e9	-0.053810988
133	0xbd48b823	-0.04900373
134	0xbd9b5c9a	-0.07586022
135	0xbda1b8ab	-0.07896551
136	0xbd5e834e	-0.05432444
137	0xbcf30125	-0.029663632
138	0xbd63db5b	-0.055629116
139	0xbd672721	-0.0564338
140	0xbd165602	-0.036703117
141	0xbd79dca4	-0.061001435
142	0xbd0f0bd3	-0.034923386
143	0xbd70e858	-0.05881533
144	0xbd735495	-0.059406836
145	0xbd869f10	-0.065733075
146	0xbb3753f4	-0.0027973624
147	0xbbdd8e09	-0.0067613167
148	0xbce4afd4	-0.027915873
149	0xbcf8a581	-0.030352356
150	0xbd1445fe	-0.036199562
151	0xbd689414	-0.056781843
152	0xbd0eab6d	-0.034831453
153	0xbd69f02c	-0.05711381
154	0xbd5580f1	-0.05212492
155	0xbd2e704d	-0.042587567
156	0xbd13ab84	-0.036052242
157	0xbd0bcf4d	-0.034133244
158	0xbd39e3b0	-0.045383155
159	0xbd080e38	-0.033216685
160	0xbd364e35	-0.044508178
161	0xbd4c67fc	-0.049903855
162	0xbd88ba4f	-0.066761605
163	0xbcc424ef	-0.023943393
164	0xbd076839	-0.03305838
165	0xbd610c79	-0.054943535
166	0xbd18b4fb	-0.03728197
167	0xbd2769a4	-0.04087223
168	0xbcd25e0d	-0.025679613
169	0xbd40fd30	-0.04711646
170	0xbd0fe32a	-0.03512875
171	0xbd4171ad	-0.04722755
172	0xbcc7066a	-0.02429505
173	0xbd38d5d5	-0.0451258
174	0xbd61101f	-0.054947015
175	0xbc7a5a1c	-0.015280273
176	0xbd71409e	-0.058899514
177	0xbd939c7a	-0.0720758
178	0xbd844987	-0.06459337
179	0xbd2ae603	-0.041723263
180	0xbd2d8a49	-0.042368207
181	0xbd7b22a6	-0.06131234
182	0xbd7f5e63	-0.062345874
183	0xbd4e7950	-0.05040866
184	0xbd8b17e5	-0.06791667
185	0xbd7a63a7	-0.061130192
186	0xbd78eba2	-0.060771592
187	0xbd615d49	-0.055020604
188	0xbd38d86c	-0.04512827
189	0xbc9a5583	-0.018839603
190	0xbd552f15	-0.052046854
191	0xbd339990	-0.04384762
192	0xbd673e10	-0.05645567
193	0xbd37cb69	-0.04487172
194	0xbd81658e	-0.06318198
195	0xbd7ee449	-0.06222943
196	0xbd63fc67	-0.05566063
197	0xbd70e409	-0.05881122
198	0xbd70aa7e	-0.058756344
199	0xbd4b7ffd	-0.049682606
200	0x3cda02ad	0.026612604
201	0xbcbeb974	-0.02328179
202	0xbbd3303f	-0.0064449604
203	0xbcd3a18f	-0.025833873
204	0xbcb40e19	-0.021979379
205	0x3c95367c	0.018214457
206	0xbc82f76b	-0.015987119
207	0xbcd580c8	-0.026062384
208	0x3cd37f58	0.025817558
209	0xbc1e52ef	-0.009663328
210	0x3c6dbe2a	0.014510671
211	0xbcc96a06	-0.024586689
212	0x3c263bb8	0.010146074
213	0x3c922ce5	0.017843673
214	0xbad8d8bc	-0.0016544084
215	0x3afaa94d	0.0019123942
216	0x3cdcc51d	0.02694946
217	0xbcc606f5	-0.02417324
218	0xbcc98312	-0.024598632
219	0x3c1569db	0.009119476
220	0xbca36ad0	-0.019948393
221	0x3c8cbf4f	0.017181067
222	0xbce56983	-0.028004413
223	0xbcec3409	-0.028833406
224	0xbce749c4	-0.028233416
225	0xbc88c86a	-0.016697127
226	0x3cc92cf2	0.024557564
227	0xbd38e11b	-0.045136552
228	0x3cae1d2e	0.021254148
229	0xbcbe4582	-0.023226503
230	0x3c33c750	0.010972813
231	0xbcbb7099	-0.02288084
232	0xbcc94443	-0.024568683
233	0x3d0d58af	0.034508403
234	0x3c8aa4fa	0.01692437
235	0xbb941cac	-0.0045200195
236	0xbca38e0d	-0.019965196
237	0xbce5771c	-0.028010897
238	0x3c708d80	0.014682174
239	0x3d538359	0.051638935
240	0xbccd8288	-0.025086656
241	0x3cb62fc1	0.022239568
242	0x3cd80d64	0.026373573
243	0x3bc4cd58	0.006005924
244	0xbcdf118a	-0.027230043
245	0x3cd9d0fe	0.026588913
246	0xbcf610dd	-0.030037338
247	0x3cc341ad	0.023835028
248	0xbc1575f8	-0.009122364
249	0x3c0d6e30	0.008632228
250	0xbceb65e8	-0.028735116
251	0x3bda57d7	0.0066633034
252	0x3cd71fbc	0.02626025
253	0x3cd97018	0.026542708
254	0xbb8e8241	-0.0043490236
255	0x3b041eb6	0.0020159907

bias_hh_l0 f4 [300]
0	0x3d116137	0.035493102
1	0x3cfd0485	0.030885944
2	0x3c4e1cce	0.01258011
3	0x3d164f8f	0.036696967
4	0x3d29d85f	0.041466113
5	0x3ca37a88	0.019955888
6	0x3ccc45ff	0.02493572
7	0x3c8fcca2	0.017553631
8	0x3d28ea49	0.041239057
9	0x3d1eda77	0.038782563
10	0x3d0380c4	0.032105222
11	0xbb3c209a	-0.0028705955
12	0x3d1b55ba	0.037923552
13	0x3cf32862	0.029682342
14	0x3d16e9d7	0.0368441
15	0x3d2de91d	0.042458642
16	0x3ca03e8a	0.019561071
17	0x3cd952ce	0.026528742
18	0xbae4e9e2	-0.0017464722
19	0x3c139f7a	0.00901019
20	0x3c8dcdd5	0.017310062
21	0x3cc0c29f	0.023530303
22	0x3c68e7e1	0.0142154405
23	0x3cd3863e	0.025820848
24	0x3c9e116a	0.019295413
25	0x3c71c161	0.014755578
26	0x3c62add7	0.013835392
27	0xbc079ac5	-0.008276646
28	0x3cfd3140	0.030907273
29	0x3cab0a07	0.020878805
30	0x3d22e66e	0.039770536
31	0x3bf9dabc	0.007624952
32	0x3d465fd4	0.048431233
33	0x3c639f8b	0.0138930185
34	0x3b441878	0.002992181
35	0x3d03f890	0.03221947
36	0x3c5ef5f5	0.013608445
37	0x3c1214be	0.008916078
38	0x3d3edb2f	0.04659575
39	0x3c27366a	0.010205844
40	0x3be96760	0.007122919
41	0x3d309866	0.04311409
42	0x3d05545d	0.03255116
43	0x3cf5b144	0.029991753
44	0x3cdc6ee7	0.026908351
45	0x3d0c33ce	0.034229092
46	0x3c35a7be	0.011087356
47	0x3cee176d	0.029063905
48	0x3ce474b2	0.027887676
49	0x3d06bf30	0.032897174
50	0x3cba85e1	0.022768917
51	0x3d101e2c	0.035185024
52	0x3cf6dd97	0.03013496
53	0xbb0c06e2	-0.0021366407
54	0x3c23249f	0.009957462
55	0x3b4621f5	0.0030232642
56	0x3cf63478	0.030054316
57	0x3be16f71	0.00687974
58	0x3d06e651	0.03293449
59	0x3d48b5d0	0.049001515
60	0xbb5a9abc	-0.003335639
61	0x3d171031	0.036880676
62	0x3bd58f54	0.00651733
63	0x3c63afe8	0.01389692
64	0x3d26230e	0.040560775
65	0x3c274b8b	0.010210882
66	0x3cba1819	0.022716569
67	0x3caa3082	0.020775083
68	0x3ca5f960	0.020260513
69	0x3d17bb0d	0.03704362
70	0x3c305443	0.010762277
71	0x3cd492f8	0.025948986
72	0x3be803e0	0.00708054
73	0x3c8b0b00	0.016973019
74	0x3cee440b	0.02908518
75	0x3c95a157	0.01826541
76	0x3d1e6bb2	0.038676925
77	0x3d3a41fb	0.04547308
78	0x3bf102fb	0.0073550916
79	0x3c967da5	0.018370459
80	0x3c90b5cc	0.017664813
81	0x3d34779c	0.04405938
82	0x3d6d5ff7	0.057952847
83	0x3cf06331	0.029344173
84	0x39c877a9	0.00038236126
85	0x3ca24146	0.019806515
86	0x3d07d918	0.03316602
87	0x3d043b74	0.03228326
88	0x3c9e816d	0.019348824
89	0x3cf530b4	0.02993045
90	0x3c03fa99	0.008055353
91	0x3ca091c9	0.019600766
92	0x3c7b6b52	0.015345411
93	0x3c73c01a	0.014877344
94	0x3d127ab8	0.035761565
95	0x3d0c26b6	0.034216605
96	0x3c193f1f	0.009353428
97	0x3d198e91	0.037489478
98	0x3d09de00	0.03365898
99	0xbb42f9a2	-0.0029750844
100	0xbd633e63	-0.05547942
101	0xbd53d801	-0.05171967
102	0xbd605ee8	-0.05477801
103	0xbd09200a	-0.03347782
104	0xbd2bb4b0	-0.041920364
105	0xbd4f97e9	-0.050681982
106	0xbd2108bb	-0.039314967
107	0xbd118049	-0.035522733
108	0xbd4322fb	-0.04764078
109	0xbd98d67f	-0.07462787
110	0xbcac4afc	-0.02103185
111	0xbd4635b7	-0.04839107
112	0xbd46cd22	-0.048535474
113	0xbd434e2c	-0.047681972
114	0xbd715def	-0.058927473
115	0xbd5b8327	-0.053591873
116	0xbc829e41	-0.015944602
117	0xbd9bff70	-0.0761708
118	0xbc60f376	-0.013729921
119	0xbcf46247	-0.029832019
120	0xbd4ff624	-0.050771847
121	0xbd0a08bb	-0.033699732
122	0xbd3f75bb	-0.046743136
123	0xbcef1cb0	-0.029188484
124	0x3a0867c8	0.0005203453
125	0xbd1f4ac7	-0.038889673
126	0xbcd2f24f	-0.025750307
127	0xbd3b1641	-0.04567552
128	0xbd8eb22e	-0.06967579
129	0xbd34af5e	-0.044112556
130	0xbd73833e	-0.059451334
131	0xbc80b16f	-0.015709607
132	0xbd5c68e9	-0.053810988
133	0xbd48b823	-0.04900373
134	0xbd9b5c9a	-0.07586022
135	0xbda1b8ab	-0.07896551
136	0xbd5e834e	-0.05432444
137	0xbcf30125	-0.029663632
138	0xbd63db5b	-0.055629116
139	0xbd672721	-0.0564338
140	0xbd165602	-0.036703117
141	0xbd79dca4	-0.061001435
142	0xbd0f0bd3	-0.034923386
143	0xbd70e858	-0.05881533
144	0xbd735495	-0.059406836
145	0xbd869f10	-0.065733075
146	0xbb3753f4	-0.0027973624
147	0xbbdd8e09	-0.0067613167
148	0xbce4afd4	-0.027915873
149	0xbcf8a581	-0.030352356
150	0xbd1445fe	-0.036199562
151	0xbd689414	-0.056781843
152	0xbd0eab6d	-0.034831453
153	0xbd69f02c	-0.05711381
154	0xbd5580f1	-0.05212492
155	0xbd2e704d	-0.042587567
156	0xbd13ab84	-0.036052242
157	0xbd0bcf4d	-0.034133244
158	0xbd39e3b0	-0.045383155
159	0xbd080e38	-0.033216685
160	0xbd364e35	-0.044508178
161	0xbd4c67fc	-0.049903855
162	0xbd88ba4f	-0.066761605
163	0xbcc424ef	-0.023943393
164	0xbd076839	-0.03305838
165	0xbd610c79	-0.054943535
166	0xbd18b4fb	-0.03728197
167	0xbd2769a4	-0.04087223
168	0xbcd25e0d	-0.025679613
169	0xbd40fd30	-0.04711646
170	0xbd0fe32a	-0.03512875
171	0xbd4171ad	-0.04722755
172	0xbcc7066a	-0.02429505
173	0xbd38d5d5	-0.0451258
174	0xbd61101f	-0.054947015
175	0xbc7a5a1c	-0.015280273
176	0xbd71409e	-0.058899514
177	0xbd939c7a	-0.0720758
178	0xbd844987	-0.06459337
179	0xbd2ae603	-0.041723263
180	0xbd2d8a49	-0.042368207
181	0xbd7b22a6	-0.06131234
182	0xbd7f5e63	-0.062345874
183	0xbd4e7950	-0.05040866
184	0xbd8b17e5	-0.06791667
185	0xbd7a63a7	-0.061130192
186	0xbd78eba2	-0.060771592
187	0xbd615d49	-0.055020604
188	0xbd38d86c	-0.04512827
189	0xbc9a5583	-0.018839603
190	0xbd552f15	-0.052046854
191	0xbd339990	-0.04384762
192	0xbd673e10	-0.05645567
193	0xbd37cb69	-0.04487172
194	0xbd81658e	-0.06318198
195	0xbd7ee449	-0.06222943
196	0xbd63fc67	-0.05566063
197	0xbd70e409	-0.05881122
198	0xbd70aa7e	-0.058756344
199	0xbd4b7ffd	-0.049682606
200	0x3cda02ad	0.026612604
201	0xbcbeb974	-0.02328179
202	0xbbd3303f	-0.0064449604
203	0xbcd3a18f	-0.025833873
204	0xbcb40e19	-0.021979379
205	0x3c95367c	0.018214457
206	0xbc82f76b	-0.015987119
207	0xbcd580c8	-0.026062384
208	0x3cd37f58	0.025817558
209	0xbc1e52ef	-0.009663328
210	0x3c6dbe2a	0.014510671
211	0xbcc96a06	-0.024586689
212	0x3c263bb8	0.010146074
213	0x3c922ce5	0.017843673
214	0xbad8d8bc	-0.0016544084
215	0x3afaa94d	0.0019123942
216	0x3cdcc51d	0.02694946
217	0xbcc606f5	-0.02417324
218	0xbcc98312	-0.024598632
219	0x3c1569db	0.009119476
220	0xbca36ad0	-0.019948393
221	0x3c8cbf4f	0.017181067
222	0xbce56983	-0.028004413
223	0xbcec3409	-0.028833406
224	0xbce749c4	-0.028233416
225	0xbc88c86a	-0.016697127
226	0x3cc92cf2	0.024557564
227	0xbd38e11b	-0.045136552
228	0x3cae1d2e	0.021254148
229	0xbcbe4582	-0.023226503
230	0x3c33c750	0.010972813
231	0xbcbb7099	-0.02288084
232	0xbcc94443	-0.024568683
233	0x3d0d58af	0.034508403
234	0x3c8aa4fa	0.01692437
235	0xbb941cac	-0.0045200195
236	0xbca38e0d	-0.019965196
237	0xbce5771c	-0.028010897
238	0x3c708d80	0.014682174
239	0x3d538359	0.051638935
240	0xbccd8288	-0.025086656
241	0x3cb62fc1	0.022239568
242	0x3cd80d64	0.026373573
243	0x3bc4cd58	0.006005924
244	0xbcdf118a	-0.027230043
245	0x3cd9d0fe	0.026588913
246	0xbcf610dd	-0.030037338
247	0x3cc341ad	0.023835028
248	0xbc1575f8	-0.009122364
249	0x3c0d6e30	0.008632228
250	0xbceb65e8	-0.028735116
251	0x3bda57d7	0.0066633034
252	0x3cd71fbc	0.02626025
253	0x3cd97018	0.026542708
254	0xbb8e8241	-0.0043490236
255	0x3b041eb6	0.0020159907
